tutor_system_reference/topcer_pipeline/models/state_seq_model.pt (torch, 106644 bytes, 11 tensors)

kc_emb.weight f4 [230, 16]
-0.014637789 0.68398553 0.94670385 -1.7051774 -0.84648705 -1.74066 1.2284101 -0.94780797
-1.4774538 1.5249999 -0.043339103 -0.36338615 -0.9074919 0.34325737 -0.0022332582 -0.6224328
-0.66529363 1.1153445 -0.3997226 -0.016404431 0.063270435 0.832124 -0.7977739 0.5317347
1.2336171 0.17107569 0.5412627 2.4632204 -0.92067647 -1.6663966 -1.0918133 -2.4204254
-0.5282629 -0.36904898 0.33157972 0.4444647 -1.3091784 0.6176914 0.32335892 1.2027719
-0.807291 -0.16270112 -1.0547965 0.308368 -0.5852325 -0.23880436 -0.17851113 -0.017294377
0.7600446 0.6981114 -1.3094476 -0.53270704 0.69268197 1.7748582 -1.1772408 0.117122926
0.5180687 -0.17839113 -0.66101813 0.2036386 0.7132416 -0.88580173 0.10534677 -1.3015234
0.14436436 1.0208845 -1.0346663 0.7799802 -1.0559183 0.18528931 0.5936768 1.0996194
0.2847524 0.12445926 1.3450027 -0.80164474 1.6867104 -0.9717923 -0.50532705 -0.31723917
-0.3019314 0.6946142 0.5356546 -0.1991338 -0.4080234 -0.6975012 -0.89460087 1.44044
0.37603226 -1.016565 0.022002079 1.3914673 -0.6462669 -0.73482144 -2.3389263 -0.9682588
0.1348823 -1.7459613 -0.50049 0.58371747 1.1734624 0.7603713 -1.0255903 0.020427296
1.5545316 1.3202713 -0.04546953 0.7136005 -0.4277444 -0.12902386 -0.50217336 -0.8028433
0.83245564 -1.335787 0.9556387 0.38351324 -0.2101518 0.51972914 -0.8183208 0.87035906
0.11321448 -1.203711 -0.41409066 1.9284183 -1.3616974 0.53372246 -2.0431552 1.3840877
-1.148244 -0.56465894 0.87202114 0.3348429 0.0033351388 0.18850932 -1.4614713 -1.0517962
0.28997242 0.344477 0.22519992 2.8098319 1.5000708 -1.0102189 0.30605826 -1.3231035
1.4529821 0.84334534 -0.2498403 -1.905666 -0.16300695 1.1425922 -0.050556235 -0.8248136
-0.44425404 0.91065216 -0.89501065 0.5513868 0.44937214 -1.1071014 0.5277904 -0.7667656
-0.42640525 -0.1763141 -1.2506495 1.4195778 -0.12593114 0.12343769 -0.2727691 1.775424
-0.43796617 -0.5587235 0.4621097 -0.13298936 -0.9489356 0.6764729 0.19810201 1.2879273
-1.2289822 0.33445206 -0.0044830805 1.3809675 0.61329836 -0.5368935 1.5092021 -1.0527273
0.4291104 -0.3909279 0.06778798 0.09273223 -0.7033853 -1.5651084 -1.2217249 1.1196786
0.13852288 0.083211794 0.06704954 -0.9134855 -1.2118496 -0.27290767 1.7481605 0.21555479
1.5222228 1.5617371 1.600035 0.68227977 0.18067999 -0.43967843 0.41826838 0.5694301
2.0087504 -0.9086409 0.5538018 0.07958233 0.19247587 0.8091639 -1.7829359 1.1611545
-0.047273397 -0.42555705 -0.30995715 -0.9850636 1.3307747 -1.1424655 0.715515 -1.9240568
-1.7808232 0.8658189 1.4707131 0.6150546 -0.23370162 -1.3359923 -0.87580407 -0.81607544
-0.4421703 -0.0057293195 0.44965032 0.19799216 -0.317811 -1.1275653 -0.75915205 -0.72177684
-2.2484157 -0.98911035 -1.3453951 0.8021929 1.131825 -0.11706379 -0.31142762 -0.72257257
-0.9725184 -0.7895606 1.4870695 -1.1064302 0.6350436 -0.4394828 0.6137001 -1.0440282
00000000: 56d3 6fbc ad19 2f3f 2f5b 723f 4143 dabf
00000010: 60b3 58bf f2cd debf 8b3c 9d3f 8ba3 72bf
00000020: 351d bdbf 3233 c33f 5884 31bd c00d babe
00000030: 6451 68bf 6ebf af3e db5b 12bb c257 1fbf
00000040: af50 2abf 9cc3 8e3f 71a8 ccbe 9662 86bc
00000050: ee93 813d 1406 553f e93a 4cbf c41f 083f
00000060: 2ae7 9d3f 772e 2f3e 3190 0a3f 67a5 1d40
00000070: 74b1 6bbf 7c4c d5bf 8ac0 8bbf 40e8 1ac0
00000080: 3d3c 07bf fdf3 bcbe d1c4 a93e e190 e33e
00000090: 2893 a7bf 0621 1e3f 4d8f a53e 6ef4 993f
000000a0: 9faa 4ebf 1f9b 26be 9203 87bf 69e2 9d3e
000000b0: ccd1 15bf 2189 74be 9fcb 36be f0ac 8dbc
000000c0: 4892 423f 6eb7 323f fb9b a7bf 7d5f 08bf
000000d0: 9b53 313f 8e2e e33f d4af 96bf 25de ef3d
000000e0: 26a0 043f 2aac 36be 7c38 29bf a386 503e
000000f0: 0097 363f e7c3 62bf 0cc0 d73d 5298 a6bf
00000100: 40d4 133e 58ac 823f f26f 84bf c8ac 473f
00000110: 5528 87bf 7bbc 3d3e 34fb 173f 54c0 8c3f
00000120: 11cb 913e 7fe4 fe3d 0c29 ac3f 9738 4dbf
00000130: 20e6 d73f 61c7 78bf 1d5d 01bf 2c6d a2be
00000140: c196 9abe 3cd2 313f a920 093f bbe9 4bbe
00000150: 71e8 d0be 708f 32bf 9004 65bf 5760 b83f
00000160: 4d87 c03e cd1e 82bf b43d b43c 9a1b b23f
00000170: bf71 25bf 421d 3cbf f8b0 15c0 cfdf 77bf
00000180: 961e 0a3e a97b dfbf 1d20 00bf 826e 153f
00000190: 0434 963f b2a7 423f 8b46 83bf 2557 a73c
000001a0: e4fa c63f a6fe a83f 423e 3abd 86ae 363f
000001b0: 5001 dbbe d51e 04be 6f8e 00bf 2387 4dbf
000001c0: d01b 553f 12fb aabf bda4 743f d95b c43e
000001d0: 0932 57be f80c 053f 797d 51bf dacf 5e3f
000001e0: fedc e73d 3413 9abf b103 d4be 69d6 f63f
000001f0: 1a4c aebf 09a2 083f 0ec3 02c0 c929 b13f
00000200: a9f9 92bf 7d8d 10bf c73c 5f3f 8770 ab3e
00000210: 5892 5a3b 9608 413e 7e11 bbbf 42a1 86bf
00000220: 4477 943e 4a5f b03e cf9a 663e 49d4 3340
00000230: 5202 c03f da4e 81bf abb3 9c3e 755b a9bf
00000240: 51fb b93f 7be5 573f 23d6 7fbe ddec f3bf
00000250: 4beb 26be 7640 923f 0e14 4fbd fc26 53bf
00000260: 4475 e3be 8020 693f 6b1f 65bf af27 0d3f
00000270: 1b14 e63e 80b5 8dbf 461d 073f c04a 44bf
00000280: ca51 dabe af8b 34be 4815 a0bf bab4 b53f
00000290: 18f4 00be e6cc fc3d 64a8 8bbe 1841 e33f
000002a0: 1a3d e0be 8108 0fbf a599 ec3e 5d2e 08be
000002b0: 72ed 72bf 542d 2d3f 41db 4a3e cdda a43f
000002c0: 4a4f 9dbf 4d3d ab3e cee6 92bb 8bc3 b03f
000002d0: 1f01 1d3f da71 09bf 892d c13f c5bf 86bf
000002e0: 5cb4 db3e b427 c8be 6dd4 8a3d 65ea bd3d
000002f0: 0f11 34bf 7955 c8bf 7b61 9cbf a151 8f3f
00000300: f1d8 0d3e f26a aa3d 4551 893d 30da 69bf
00000310: e31d 9bbf 8eba 8bbe b9c3 df3f 65ba 5c3e
00000320: 32d8 c23f 00e7 c73f f2cd cc3f e3a9 2e3f
00000330: 2d04 393e 881d e1be 4627 d63e 2cc6 113f
00000340: 5e8f 0040 b19c 68bf f4c5 0d3f 10fc a23d
00000350: 6518 453e 5e25 4f3f 3e37 e4bf b6a0 943f
00000360: c0a1 41bd 9de2 d9be b4b2 9ebe 212d 7cbf
00000370: d356 aa3f 4f3c 92bf fe2b 373f 7e47 f6bf
00000380: 04f2 e3bf 4fa6 5d3f 5440 bc3f 3874 1d3f
00000390: 7a4f 6fbe cc01 abbf b234 60bf 52ea 50bf
000003a0: 2564 e2be 04bd bbbb 9138 e63e 75be 4a3e
000003b0: 20b8 a2be 0f54 90bf ca57 42bf 5ec6 38bf
000003c0: 0be6 0fc0 5636 7dbf e835 acbf 845c 4d3f
000003d0: a4df 903f 24bf efbd 7173 9fbe 84fa 38bf
000003e0: f7f6 78bf a520 4abf 4b58 be3f 819f 8dbf
000003f0: 3892 223f e403 e1be 731b 1d3f b7a2 85bf

gru.weight_ih_l0 f4 [192, 27]
0.008490973 0.0911161 0.09341706 0.060695678 -0.0797205 0.010609567 -0.0002724775 0.08022092
0.05710102 -0.028934106 -0.024047695 -0.057755936 -0.012175701 -0.02289109 0.040328786 0.020727322
-0.11941681 0.026964288 -0.001932089 0.055420373 -0.04803192 -0.08592316 -0.012999306 0.052493963
-0.06884482 -0.08812497 -0.06661174 0.0696112 -0.04954771 -0.067227684 -0.048720952 0.13762735
-0.0803193 -0.012025876 -0.054990865 0.048926473 0.13096572 0.04347159 0.11348155 -0.0033287127
0.14179394 0.050497115 -0.08372991 0.1412799 0.14085138 0.115763284 0.07541451 0.072391525
-0.07570043 0.02546144 -0.080325544 -0.023656208 -0.09856348 -0.05255981 0.09382679 -0.02669593
0.049034752 0.024169493 0.09684832 -0.11988747 -0.071616255 0.022757135 -0.058390126 -0.040447053
-0.0019689726 -0.06383972 0.053945914 0.11186303 0.039737634 -0.06709318 -0.09881234 0.07317472
-0.11711363 -0.010417369 0.11881092 0.07288457 0.0708202 0.10311749 0.0054029166 0.006489093
0.049268376 -0.023756558 -0.021253496 0.045778397 -0.066970445 -0.016286716 0.09432191 -0.049094055
-0.023204166 -0.03199605 0.09039937 -0.0531319 0.06865566 0.045959983 -0.037974555 -0.06723631
-0.038730625 0.018181898 -0.08928154 0.12715782 -0.0797057 0.06422151 -0.035985325 0.0630095
-0.041599847 -0.08988089 0.08852719 0.012762822 0.06466501 0.0032228553 0.09127166 -0.044447746
-0.080442145 -0.011723816 0.11548516 0.10150703 -0.018532068 0.014726778 -0.044084046 -0.11119179
0.11610923 0.07382572 -0.045447566 -0.12071212 0.11584084 0.0045716125 0.0496206 -0.021385353
-0.010768299 0.1278726 0.07003901 -0.056551784 0.11329981 0.086191885 0.08671426 0.058034632
0.07600367 0.064082384 -0.07228106 0.09600324 0.09488645 -0.06375612 -0.056100756 0.031231344
0.043257132 0.1066406 0.030289873 0.061798237 -0.10821131 -0.08262795 0.068419494 0.08820176
0.13325004 0.014946814 0.015890438 -0.057935964 0.09436323 0.026489971 -0.042917773 0.09739296
0.09422541 -0.11125206 0.14343387 0.032453004 0.028334951 -0.037873104 -0.039217956 -0.059681825
0.060138028 -0.08138148 0.08442861 0.06476979 0.057658203 -0.022136036 -0.0714831 0.09701937
-0.058088236 -0.06415997 0.12449609 0.12178905 -0.12771544 0.077659726 0.040312152 -0.010621285
0.027752617 0.017305758 0.021119809 -0.06941957 -0.05867994 0.11295621 0.042715468 -0.013376023
-0.075735934 0.1381985 0.0047731963 0.047972426 -0.078604475 0.08398547 0.05815364 0.008464947
-0.0985359 -0.10018742 -0.029848766 0.14633177 0.07390479 -0.02295867 0.12373393 -0.06522828
0.0034827953 -0.0041032163 0.055287957 -0.025161669 0.085538775 0.042806752 0.07972497 -0.084825836
-0.028234119 -0.054974675 0.1308547 0.11918567 -0.07517668 -0.07627854 0.04087922 0.0925839
0.056732655 0.015282821 -0.098491505 0.07952927 -0.032759443 0.05010731 0.0005424225 0.076690726
-0.029902227 0.060765926 0.062720664 0.053071767 -0.012323465 0.033810887 0.08818701 -0.08960421
-0.017186938 -0.068623185 -0.020648329 -0.10744988 -0.077708 0.006388502 0.08514103 -0.09545051
-0.020135526 0.058338903 0.035254594 0.022912486 0.026173098 -0.097363636 0.03020201 -0.09600345
00000000: b91d 0b3c 149b ba3d 7251 bf3d 089c 783d
00000010: 8044 a3bd c0d3 2d3c 50db 8eb9 de4a a43d
00000020: c2e2 693d 3807 edbc acff c4bc 7d91 6cbd
00000030: 977c 47bc 1886 bbbc cc2f 253d 58cc a93c
00000040: cd90 f4bd 36e4 dc3c 263e fdba 7900 633d
00000050: 1ebd 44bd 7bf8 afbd 0bfb 54bc e903 573d
00000060: 83fe 8cbd dd7a b4bd bc6b 88bd 5190 8e3d
00000070: 8af2 4abd abae 89bd 9f8f 47bd 2fee 0c3e
00000080: 727e a4bd 2e08 45bc 1a3e 61bd 2067 483d
00000090: e11b 063e 440f 323d 0469 e83d 8826 5abb
000000a0: 6e32 113e 10d6 4e3d 967a abbd aeab 103e
000000b0: 583b 103e 4d15 ed3d ec72 9a3d 0242 943d
000000c0: d408 9bbd 8394 d03c b881 a4bd aaca c1bc
000000d0: a6db c9bd f548 57bd 4328 c03d 6cb1 dabc
000000e0: aad8 483d 1aff c53c 6958 c63d 9087 f5bd
000000f0: 8bab 92bd 2c6d ba3c 7c2a 6fbd cfab 25bd
00000100: e109 01bb 66be 82bd 64f6 5c3d 7218 e53d
00000110: eec3 223d 2668 89bd 205e cabd a1dc 953d
00000120: 45d9 efbd 9dad 2abc 2453 f33d 8144 953d
00000130: 2e0a 913d 432f d33d f30a b13b 75a2 d43b
00000140: a3cd 493d 1d9d c2bc d01b aebc 2182 3b3d
00000150: cd27 89bd b86b 85bc d82b c13d d916 49bd
00000160: aa16 bebc 4a0e 03bd 4e23 b93d d6a0 59bd
00000170: 579b 8c3d 8940 3c3d 358b 1bbd 31b3 89bd
00000180: 01a4 1ebd 34f2 943c 3dd9 b6bd a935 023e
00000190: be3c a3bd 9186 833d 5965 13bd 200b 813d
000001a0: 9a64 2abd 7913 b8bd be4d b53d 281b 513c
000001b0: 176f 843d 8a36 533b a3ec ba3d d70e 36bd
000001c0: dabe a4bd 4015 40bc 7c83 ec3d ebe2 cf3d
000001d0: 90d0 97bc 9548 713c 7991 34bd 85b8 e3bd
000001e0: adca ed3d f031 973d 3a27 3abd ea37 f7bd
000001f0: f63d ed3d 77cd 953b f83e 4b3d 5630 afbc
00000200: 856d 30bc 09f1 023e 9d70 8f3d d8a2 67bd
00000210: bb09 e83d 5f85 b03d 3f97 b13d b9b5 6d3d
00000220: d0a7 9b3d a03d 833d 1808 94bd 599d c43d
00000230: d453 c23d 9292 82bd e8c9 65bd e0d8 ff3c
00000240: 642e 313d 6366 da3d 7822 f83c 2620 7d3d
00000250: e49d ddbd d838 a9bd 851f 8c3d 20a3 b43d
00000260: b372 083e 7be3 743c aa2c 823c 434e 6dbd
00000270: 8241 c13d 7f01 d93c 8cca 2fbd f675 c73d
00000280: 40f9 c03d 1fd8 e3bd 54e0 123e 71ed 043d
00000290: b31e e83c d420 1bbd 02a3 20bd ee74 74bd
000002a0: 4b53 763d 55ab a6bd e8e8 ac3d 06a6 843d
000002b0: 022b 6c3d a256 b5bc bb65 92bd 17b2 c63d
000002c0: eeed 6dbd 4d66 83bd cef7 fe3d 8a6c f93d
000002d0: d6c7 02be 100c 9f3d 5b1e 253d e604 2ebc
000002e0: 7559 e33c cec4 8d3c 7303 ad3c d92b 8ebd
000002f0: 605a 70bd 9655 e73d 6af6 2e3d 1b27 5bbc
00000300: 711b 9bbd e883 0d3e 7968 9c3b bc7e 443d
00000310: 62fb a0bd 9300 ac3d 8332 6e3d 90b0 0a3c
00000320: 31cd c9bd 102f cdbd 6685 f4bc ffd7 153e
00000330: 655b 973d d213 bcbc 3768 fd3d 6896 85bd
00000340: 9c3f 643b 4674 86bb a075 623d d81f cebc
00000350: f42e af3d 2256 2f3d d846 a33d 2bb9 adbd
00000360: 3d4b e7bc 202d 61bd c6fe 053e 9e17 f43d
00000370: 3bf6 99bd ec37 9cbd f870 273d a19c bd3d
00000380: 8060 683d cc64 7a3c eab5 c9bd 3ee0 a23d
00000390: c42e 06bd 533d 4d3d 5c31 0e3a 0710 9d3d
000003a0: 84f5 f4bc b1e5 783d b173 803d c861 593d
000003b0: 5ce8 49bc 497d 0a3d 649b b43d 6982 b7bd
000003c0: 9fcb 8cbc 508a 8cbd af26 a9bc af0e dcbd
000003d0: 5f25 9fbd a456 d13b 6c5e ae3d 8f7b c3bd
000003e0: 42f3 a4bc c6f4 6e3d 1f67 103d f7b2 bb3c
000003f0: f768 d63c 9666 c7bd 356a f73c 759d c4bd

gru.weight_hh_l0 f4 [192, 64]
0.10068821 -0.0440257 -0.13560653 0.10243432 0.08793332 -0.020188877 -0.038747273 0.091410615
0.07519719 -0.0061027287 0.028261138 -0.14125939 0.050520938 -0.11500365 -0.10089572 -0.08107091
-0.0033075698 -0.024255613 0.11319782 -0.020810137 -0.0032618942 0.04056122 -0.0012955668 -0.12929267
0.05888481 -0.004328015 0.117417626 0.09594848 -0.12212847 0.02537955 0.11530787 0.015282284
0.099278346 0.09769434 -0.06499897 0.049782813 0.08736943 0.08888872 -0.033533104 -0.033126805
-0.102559425 -0.12744707 0.03453092 0.017904028 0.008198717 -0.006605323 0.01895843 0.07169286
-0.05785235 -0.0062425868 -0.05745213 -0.10939996 0.09165875 0.065491155 0.05900479 -0.09485702
0.122705474 -0.08970085 0.04387096 -0.05501534 -0.06354489 0.09493167 -0.13301158 -0.06932117
-0.01306636 0.04352701 0.10490733 0.09814963 -0.037809234 -0.031493526 -0.041192733 -0.06782486
0.10642189 0.016525071 0.03474784 0.043166976 -0.08591193 -0.07785247 0.0056980103 -0.04722401
0.039406978 -0.07620693 0.014267029 -0.027296131 0.12357755 -0.017819133 0.13969275 0.13325226
0.04385811 0.008539225 -0.117880814 -0.060632654 -0.092340745 0.06877017 0.045894954 0.067997865
0.015302949 0.04431103 0.05766343 -0.0014929936 -0.14595543 0.07851401 -0.009372843 0.03469351
-0.040125825 -0.08280086 -0.002988563 0.09159582 0.02558214 -0.10807655 -0.0501391 -0.09894403
0.0070145577 -0.07059701 -0.0118975835 0.032336984 -0.010055263 0.010674051 -0.06494246 0.12997
-0.11033773 0.14769165 -0.0908368 -0.008145495 0.014483023 -0.11253057 0.039363127 0.0021846476
-0.039227143 0.06903162 0.06936465 -0.044097103 0.083514184 -0.026410263 -0.11187559 0.08255308
-0.041199364 -0.09445722 0.0948385 -0.042813707 -0.061521936 0.0044686324 0.10474555 0.08283832
-0.015563697 0.016985564 -0.12207771 0.06848103 0.020780625 0.08384113 0.048750553 -0.032073256
0.011586147 -0.011364207 0.03458045 0.024715196 -0.090658315 -0.012152909 0.011654132 0.13057457
-0.08947874 0.025894271 -0.02974276 -0.023048319 0.103911124 0.041660592 0.07309635 0.021582851
0.016764179 0.07186626 -0.111235954 0.006017893 -0.06740456 0.00077030173 -0.0589694 0.06384004
-0.12508564 0.07829701 -0.11430441 -0.121340774 -0.11860144 0.08192989 0.09456145 -0.050230786
-0.042274855 -0.079264775 0.051908113 -0.045745928 0.056484178 0.038943328 -0.047947552 0.083698206
0.11010241 -0.039812148 -0.07825751 0.09044428 0.0061281165 0.13776512 -0.0770422 -0.07246653
0.009546427 0.055337127 -0.0047479337 0.0018255634 -0.13354683 -0.054785796 0.09743376 0.045519795
0.056320105 -0.095464945 0.0972638 -0.036067203 0.112423204 0.0532981 0.1208272 0.064177744
0.05173073 -0.075202115 0.07104145 -0.03029046 -0.00041984027 0.025896534 -0.09613228 -0.082462035
0.06252628 -0.06381487 0.08094422 0.02702191 -0.07622829 -0.10673154 -0.043098465 0.06324789
-0.12785356 0.06898216 -0.016619857 -0.09460844 0.027608538 -0.102028705 -0.041373674 0.0123511255
-0.078756355 0.07427685 0.0010574406 -0.012151896 0.022292625 -0.13291425 0.076340124 0.10265987
-0.08908414 -0.05553391 -0.014634247 -0.031353083 0.053190652 -0.008837338 0.019251786 0.0068210852
00000000: 9f35 ce3d 4b54 34bd 70dc 0abe 16c9 d13d
00000010: 6216 b43d 2563 a5bc 76b5 1ebd 7d35 bb3d
00000020: fc00 9a3d 66f9 c7bb e783 e73c 4da6 10be
00000030: 0bef 4e3d 0987 ebbd 6aa2 cebd 8108 a6bd
00000040: d0c3 58bb b5b3 c6bc 42d4 e73d 057a aabc
00000050: 81c5 55bb 8623 263d 02d0 a9ba 4c65 04be
00000060: 3331 713d 05d2 8dbb a778 f03d a380 c43d
00000070: 7e1e fabd c6e8 cf3c 8826 ec3d 8b62 7a3c
00000080: 7252 cb3d f813 c83d 2e1e 85bd 10e9 4b3d
00000090: beee b23d 4a0b b63d 025a 09bd f9af 07bd
000000a0: ad0a d2bd 7c81 02be 4b70 0d3d 78ab 923c
000000b0: e953 063c 7771 d8bb b64e 9b3c b5d3 923d
000000c0: 96f6 6cbd 9d8e ccbb ed52 6bbd 160d e0bd
000000d0: 95b7 bb3d 3a20 863d 02af 713d 6644 c2bd
000000e0: 024d fb3d 14b5 b7bd 09b2 333d c457 61bd
000000f0: d323 82bd 896b c23d 3034 08be 42f8 8dbd
00000100: 4914 56bc 6149 323d a7d9 d63d ac02 c93d
00000110: dbdd 1abd 5bff 00bd b6b9 28bd c3e7 8abd
00000120: b8f3 d93d 965f 873c c053 0e3d dbcf 303d
00000130: 98f2 afbd 1e71 9fbd 60b6 ba3b f76d 41bd
00000140: 3669 213d 6112 9cbd 42c0 693c 239c dfbc
00000150: 3a16 fd3d 6ef9 91bc 9e0b 0f3e 4873 083e
00000160: 90a4 333d 1be8 0b3c 7f6b f1bd f259 78bd
00000170: 251d bdbd 60d7 8c3d 59fc 3b3d 7742 8b3d
00000180: 38b9 7a3c 7c7f 353d 7d30 6c3d 8db0 c3ba
00000190: 5775 15be f4cb a03d 8e90 19bc c81a 0e3d
000001a0: fa5a 24bd 7f93 a9bd c4db 43bb 9796 bb3d
000001b0: a391 d13c 3d57 ddbd a85e 4dbd 2ba3 cabd
000001c0: 60da e53b 2a95 90bd 15ee 42bc c973 043d
000001d0: d4be 24bc 37e2 2e3c 8d00 85bd db16 053e
000001e0: bff8 e1bd 7b3c 173e a508 babd af74 05bc
000001f0: 344a 6d3c 6d76 e6bd 3b3b 213d 4e2c 0f3b
00000200: a4ac 20bd 7360 8d3d 0e0f 8e3d 2a9f 34bd
00000210: 7c09 ab3d 565a d8bc 081f e5bd 9711 a93d
00000220: aac0 28bd c972 c1bd b03a c23d 6d5d 2fbd
00000230: 6dfe 7bbd 9b6d 923b d684 d63d 23a7 a93d
00000240: e0fe 7ebc 4f25 8b3c e103 fabd c83f 8c3d
00000250: 213c aa3c e6b4 ab3d a9ae 473d 3f5f 03bd
00000260: d3d3 3d3c f030 3abc 3ba4 0d3d 8677 ca3c
00000270: 11ab b9bd ff1c 47bc f9f0 3e3c 57b5 053e
00000280: a140 b7bd 3920 d43c 17a7 f3bc d4cf bcbc
00000290: 5bcf d43d 4ca4 2a3d 8ab3 953d 85ce b03c
000002a0: 0855 893c 9e2e 933d adcf e3bd bf31 c53b
000002b0: 670b 8abd 13ee 493a e689 71bd 91be 823d
000002c0: 7316 00be 2f5a a03d 6e18 eabd 8381 f8bd
000002d0: 50e5 f2bd dcca a73d 6fa9 c13d ccbe 4dbd
000002e0: 6628 2dbd 9255 a2bd 9a9d 543d 1560 3bbd
000002f0: f45b 673d 0a83 1f3d a764 44bd f769 ab3d
00000300: 5f7d e13d 1012 23bd 7945 a0bd da3a b93d
00000310: 5ece c83b 4d12 0d3e 4dc8 9dbd 5569 94bd
00000320: 9e68 1c3c 2fa9 623d 8e94 9bbb be47 ef3a
00000330: 80c0 08be 1267 60bd 5a8b c73d f772 3a3d
00000340: e9af 663d 2083 c3bd 3e32 c73d 34bb 13bd
00000350: 233e e63d 1c4f 5a3d 4074 f73d 9f6f 833d
00000360: 9ae3 533d 9103 9abd 2e7e 913d b323 f8bc
00000370: 021e dcb9 f824 d43c 00e1 c4bd dbe1 a8bd
00000380: c70d 803d 5fb1 82bd 15c6 a53d 0d5d dd3c
00000390: 941d 9cbd 1196 dabd 0488 30bd 1c88 813d
000003a0: 0bec 02be 8546 8d3d 5e26 88bc 12c2 c1bd
000003b0: 4d2b e23c 6df4 d0bd 7177 29bd 605c 4a3c
000003c0: 034b a1bd 761e 983d d299 8a3a bf18 47bc
000003d0: 069f b63c ac1a 08be 3658 9c3d 573f d23d
000003e0: bf71 b6bd 8677 63bd 7bc4 6fbc 176c 00bd
000003f0: 71de 593d 7bca 10bc ecb5 9d3c 6983 df3b

gru.bias_ih_l0 f4 [192]
0.08288191 0.036772672 0.011556646 -0.053133998 0.11144683 0.08400349 0.09338576 0.1347971
0.048003852 -0.057785712 -0.004404054 0.11577728 0.11810387 0.084361576 0.08939155 0.10904769
0.009844538 -0.08620776 0.038206838 0.07437017 0.04589856 0.1383537 -0.0629712 0.052766614
0.058023244 -0.12629472 0.13030437 0.026332129 -0.08223953 -0.05513109 0.00612509 0.10349156
-0.010036251 0.094432905 -0.0826311 -0.119610466 -0.052580375 -0.13193865 0.057662774 0.11249119
0.02018717 -0.083547175 -0.018757772 -0.064664535 0.017267574 0.13172501 -0.08696239 -0.0730399
0.14273715 0.14995766 -0.06747909 0.0940746 0.07041773 -0.012222693 0.065280594 0.07181013
-0.11360213 -0.0013446286 0.08533568 0.113720864 0.12049329 0.055755235 -0.042603664 0.091247275
-0.12338472 0.0629568 -0.14245793 -0.07844165 -0.08166392 0.02999316 0.08594897 -0.041935492
-0.07144641 -0.02951496 -0.05522272 0.053252954 0.017811595 -0.11046469 -0.04788418 -0.07151988
-0.08888287 -0.10899649 0.114349276 -0.1233623 -0.12867495 -0.080482185 -0.12616201 0.047142155
-0.03960964 -0.08485549 -0.07325881 -0.088888526 -0.04056272 0.038017493 -0.052608605 -0.14187154
-0.05955955 0.07762595 0.040669218 -0.042732414 0.072555415 -0.032513563 -0.09820043 0.03184127
-0.07788474 -0.09005861 0.02435194 -0.14737889 0.05248547 -0.054502204 0.122234136 -0.010281942
-0.06085956 0.11758146 -0.054985486 -0.059103794 0.0629062 0.027028073 0.00743565 -0.0727098
0.07801182 0.09148658 0.0010168683 -0.039520066 0.043420807 0.11485174 0.034396447 0.08788459
0.019556839 0.022825196 -0.017215144 0.05719165 0.09796437 0.0730101 0.037353273 -0.10300467
-0.048105508 0.08899129 0.13668406 0.14415224 -0.05183827 0.13628909 -0.11188862 -0.04864547
-0.05043363 -0.052841324 -0.13898742 0.07846216 -0.01028923 0.09257671 0.0206046 0.07139767
-0.088855185 0.031903677 0.018434558 -0.1016103 0.11197802 -0.017560912 0.04471155 0.027478237
-0.08850005 -0.022725178 -0.0048194383 -0.08640378 -0.023491366 -0.0029544136 0.07631164 0.06447524
0.10705487 0.0316868 0.08810812 -0.08410926 0.08550822 -0.021025177 0.09810563 -0.040885042
-0.030081766 0.088474855 -0.09722549 -0.055671267 0.12517294 -0.055113308 -0.079065435 0.04226172
-0.004960693 -0.099793285 0.08656978 0.05923208 -0.09770492 -0.03002919 -0.026448831 0.06930487
00000000: febd a93d f19e 163d 1658 3d3c 09a3 59bd
00000010: 3c3e e43d 060a ac3d 0941 bf3d 4008 0a3e
00000020: b09f 443d b6b0 6cbd e24f 90bb a31c ed3d
00000030: 71e0 f13d c3c5 ac3d eb12 b73d 6554 df3d
00000040: fc4a 213c b28d b0bd c67e 1c3d 634f 983d
00000050: 2100 3c3d 98ac 0d3e 0bf7 80bd ce21 583d
00000060: c8a9 6d3d 6753 01be 826e 053e 7ab6 d73c
00000070: 336d a8bd 23d1 61bd fbb4 c83b 62f3 d33d
00000080: 166f 24bc 0a66 c13d 7f3a a9bd 55f6 f4bd
00000090: 855e 57bd ed1a 07be cd2f 6c3d c861 e63d
000000a0: 905f a53c c81a abbd e6a9 99bc d76e 84bd
000000b0: ba74 8d3c ece2 063e 5619 b2bd f195 95bd
000000c0: b029 123e 808e 193e 7a32 8abd 2faa c03d
000000d0: 2c37 903d b141 48bc d5b1 853d 3011 933d
000000e0: 3ca8 e8bd 403e b0ba 79c4 ae3d 7ce6 e83d
000000f0: 30c5 f63d 9a5f 643d 2e81 2ebd dadf ba3d
00000100: 21b1 fcbd 7fef 803d 7ee0 11be 04a6 a0bd
00000110: 6a3f a7bd 37b4 f53c 0306 b03d 8dc4 2bbd
00000120: 7f52 92bd 5bc9 f1bc 3831 62bd c51f 5a3d
00000130: 9fe9 913c 503b e2bd 3422 44bd 0479 92bd
00000140: 3908 b6bd 8d39 dfbd f42f ea3d 60a5 fcbd
00000150: 5ec3 03be d8d3 a4bd 9d30 01be 2218 413d
00000160: b83d 22bd b7c8 adbd b708 96bd 300b b6bd
00000170: 1825 26bd 3bb8 1b3d 1f7c 57bd c646 11be
00000180: b7f4 73bd 5bfa 9e3d c494 263d 2f08 2fbd
00000190: ef97 943d f12c 05bd 4f1d c9bd fe6b 023d
000001a0: 0982 9fbd a670 b8bd b87d c73c 7eea 16be
000001b0: 01fb 563d b43d 5fbd e455 fa3d 9775 28bc
000001c0: e047 79bd 8cce f03d 7638 61bd d216 72bd
000001d0: f7d4 803d fa69 dd3c c1a6 f33b e0e8 94bd
000001e0: a9c4 9f3d 515d bb3d 7048 853a cbdf 21bd
000001f0: 04da 313d 6437 eb3d 4ae3 0c3d d6fc b33d
00000200: aa35 a03c e8fb ba3c c606 8dbc cb41 6a3d
00000210: 8ba1 c83d 5286 953d bfff 183d 1df4 d2bd
00000220: 480a 45bd 1141 b63d e8f6 0b3e a59c 133e
00000230: 5e54 54bd 5e8f 0b3e dc25 e5bd 7940 47bd
00000240: 7e93 4ebd 2570 58bd b852 0ebe c5b0 a03d
00000250: 2994 28bc dc98 bd3d faca a83c f138 923d
00000260: b5f9 b5bd 6ead 023d 1204 973c 1019 d0bd
00000270: bb54 e53d e7db 8fbc 7523 373d 0a1a e13c
00000280: 843f b5bd 272a babc 61ec 9dbb 77f4 b0bd
00000290: f770 c0bc d69e 41bb 4749 9c3d 980b 843d
000002a0: 953f db3d 05ca 013d 0872 b43d 7a41 acbd
000002b0: ef1e af3d fe3c acbc 9beb c83d 1377 27bd
000002c0: 096e f6bc 4e32 b53d 281e c7bd 8e07 64bd
000002d0: 562d 003e 7ebe 61bd 0fed a1bd a01a 2d3d
000002e0: 4f8d a2bb 6c60 ccbd 7f4b b13d 569d 723d
000002f0: 8419 c8bd c7ff f5bc 38ab d8bc b6ef 8d3d

gru.bias_hh_l0 f4 [192]
0.08024507 0.14178218 0.10884056 0.052962855 0.095757365 0.044367053 0.032560363 0.13931149
-0.0100357365 0.11179076 0.08806878 0.05779416 0.032871593 -0.027867854 0.056299653 0.008489252
-0.037377674 0.014557089 -0.06894787 -0.06516517 0.011594141 -0.009711263 0.0702488 -0.022044938
-0.08391113 0.07001562 -0.03990076 0.09207446 -0.07177373 -0.08862036 -0.01849709 -0.09702017
-0.08741302 -0.091076635 -0.1240113 0.06546123 0.039230727 0.020776724 -0.039809458 -0.05870851
-0.04305848 0.086539194 -0.012961835 0.028636286 0.04660907 -0.09754948 0.080809094 0.07758345
0.13935257 -0.07875591 -0.09545371 -0.09791798 0.10344053 0.11061988 0.0494054 -0.056257274
-0.013014403 -0.13654353 -0.11742229 0.09397461 0.14941104 -0.0066862055 0.0285481 -0.092197865
-0.045275267 0.1039814 0.08263105 -0.0121021 -0.02406089 0.031027468 -9.0158486e-05 -0.072816685
0.031636164 -0.07051877 0.038884446 0.04228325 -0.017564133 0.013054532 0.077359036 -0.0034311435
-0.059594445 0.008936771 -0.07949123 -0.025506962 0.06303906 -0.04347251 0.073497966 0.096912935
0.14262071 0.031485584 -0.039567705 -0.011103153 -0.106471054 0.035974205 -0.067375645 0.07123152
-0.001586895 0.12958333 0.10658345 -0.06993879 0.112563305 0.08976748 0.0033056978 0.012334493
-0.093280524 -0.098423876 0.07910256 0.059373777 0.091169365 -0.078073025 0.07836708 -0.0021398787
0.05233795 0.09656644 0.077989504 -0.045971476 -0.1321296 0.030322641 0.067871384 -0.0066492786
0.012357255 -0.103912555 -0.07703864 -0.008229238 -0.048389696 0.07694393 0.124901704 -0.063346036
0.0066726822 0.10670204 0.13356224 0.1468007 -0.026397131 -0.02991116 -0.1354823 -0.025666723
0.060724884 -0.028141806 -0.09326938 0.05308935 0.07078938 0.116682984 0.0030429491 0.14416832
0.12365056 -0.098770976 -0.13673332 -0.054500826 -0.045528956 0.051949244 -0.060406867 0.025209503
0.009103275 -0.031572573 -0.14525366 -0.05111675 0.08103921 0.1281188 -0.013246345 -0.0036963439
-0.11910178 0.052213516 0.0069396067 0.06535122 0.08504871 0.028491575 -0.042921476 -0.020681864
0.0847268 -0.018065102 -0.030018572 0.06870384 0.100677006 -0.09727671 0.0094119925 -0.072941095
0.11453971 -0.1320611 0.09803343 -0.073696785 0.049927503 0.06617382 -0.06700329 0.098183945
-0.029446198 0.061873876 0.089659125 -0.07347695 -0.100446604 -0.05184765 -0.0933477 -0.06620667
00000000: 8757 a43d 592f 113e cde7 de3d 94ef 583d
00000010: 701c c43d 3aba 353d 045e 053d aca7 0e3e
00000020: ee6c 24bc 8ef2 e43d 685d b43d 92b9 6c3d
00000030: 5da4 063d 204b e4bc 779a 663d 8116 0b3c
00000040: 5519 19bd db80 6e3c 8a34 8dbd 5175 85bd
00000050: 5af5 3d3c fd1b 1fbc 9ade 8f3d 9697 b4bc
00000060: 99d9 abbd 5964 8f3d fb6e 23bd 8991 bc3d
00000070: 1bfe 92bd 977e b5bd 3687 97bc 83b2 c6bd
00000080: 9905 b3bd 6386 babd a3f9 fdbd 8a10 863d
00000090: 66b0 203d f333 aa3c 3e0f 23bd 5678 70bd
000000a0: 175e 30bd 763b b13d e05d 54bc a596 ea3c
000000b0: 27e9 3e3d 06c8 c7bd 3d7f a53d 12e4 9e3d
000000c0: 71b2 0e3e c74a a1bd 3c7d c3bd 3989 c8bd
000000d0: a1d8 d33d ad8c e23d 515d 4a3d 076e 66bd
000000e0: 5d3a 55bc 11d2 0bbe 197b f0bd c375 c03d
000000f0: 35ff 183e f517 dbbb b4dd e93c 3cd2 bcbd
00000100: 8f72 39bd 33f4 d43d 783a a93d e347 46bc
00000110: 581b c5bc 512d fe3c 7813 bdb8 ea20 95bd
00000120: ec94 013d 256c 90bd 4c45 1f3d 3331 2d3d
00000130: a8e2 8fbc ade2 553c 6a6e 9e3d 09dd 60bb
00000140: 4e19 74bd 896b 123c 4ccc a2bd faf3 d0bc
00000150: 9f1a 813d 3b10 32bd 1a86 963d 4a7a c63d
00000160: 2a0b 123e 07f7 003d bf11 22bd 00ea 35bc
00000170: 7f0d dabd b059 133d 3efc 89bd d5e1 913d
00000180: 5cff cfba 7eb1 043e 6d48 da3d 113c 8fbd
00000190: 9787 e63d 03d8 b73d 68a4 583b 9d16 4a3c
000001a0: dc09 bfbd 7592 c9bd 8600 a23d eb31 733d
000001b0: 01b7 ba3d c0e4 9fbd eb7e a03d 353d 0cbb
000001c0: 5160 563d a0c4 c53d f6b8 9f3d 964c 3cbd
000001d0: fb4c 07be 3067 f83c 2700 8b3d 31e2 d9bb
000001e0: 1676 4a3c 1bd0 d4bd 6fc6 9dbd edd3 06bc
000001f0: 4634 46bd c794 9d3d 77cc ff3d 91bb 81bd
00000200: 84a6 da3b 9986 da3d 8ac4 083e ec52 163e
00000210: cc3e d8bc 4008 f5bc dfbb 0abe 0543 d2bc
00000220: a8ba 783d a589 e6bc 0404 bfbd 3874 593d
00000230: 06fa 903d 7df7 ee3d 376c 473b dca0 133e
00000240: 813c fd3d 7048 cabd d203 0cbe 423c 5fbd
00000250: 927c 3abd bbc8 543d 316d 77bd 2984 ce3c
00000260: e725 153c 3e52 01bd 60bd 14be cc5f 51bd
00000270: e3f7 a53d 9331 033e 3307 59bc 5c3e 72bb
00000280: a2eb f3bd d7dd 553d a465 e33b dcd6 853d
00000290: 052e ae3d 2a67 e93c 6ece 2fbd 036d a9bc
000002a0: 3f85 ad3d 44fd 93bc 82e9 f5bc 99b4 8c3d
000002b0: bf2f ce3d 0339 c7bd c234 1a3c 2462 95bd
000002c0: cc93 ea3d 063b 07be c0c5 c83d 57ee 96bd
000002d0: c880 4c3d 2486 873d 0539 89bd aa14 c93d
000002e0: 2739 f1bc 766f 7d3d 349f b73d 157b 96bd
000002f0: f3b6 cdbd 345e 54bd 142d bfbd 5d97 87bd

head_correct.weight f4 [1, 64]
0.028356336 0.03292518 0.11564299 0.13117607 -0.020126754 -0.021320436 -0.05575934 -0.05779451
0.13872188 0.12379659 0.054761156 0.119272985 0.08420097 0.11076006 -0.09658843 0.095359705
0.12319337 0.026929166 -0.056185845 -0.0843965 0.092684336 -0.103002936 -0.021418093 0.08633452
-0.0995435 0.0075760307 -0.039925694 -0.07680419 0.028836196 0.112632275 -0.14380962 -0.0091975825
-0.004983786 -0.035951428 -0.025451746 0.034352362 -0.017480714 0.06437049 0.044331603 -0.05191106
0.015460784 -0.048296716 0.015760964 0.112897456 0.060509514 -0.02396865 -0.03183141 -0.09470142
-0.12995374 0.010694268 0.021503748 0.070699744 -0.02265805 -0.017346593 0.06923456 0.14119135
-0.06760926 0.07391219 0.07546859 0.0094220545 0.063653894 0.11313139 0.030386094 -0.038343787
00000000: 8c4b e83c 8edc 063d 3bd6 ec3d 0553 063e
00000010: dde0 a4bc 32a8 aebc e863 64bd f0b9 6cbd
00000020: 1c0d 0e3e 1189 fd3d 3c4d 603d 6545 f43d
00000030: 8f71 ac3d 2cd6 e23d 28d0 c5bd f34b c33d
00000040: ce4c fc3d 8e9a dc3c 2123 66bd 12d8 acbd
00000050: 49d1 bd3d 34f3 d2bd ff74 afbc 27d0 b03d
00000060: 76dd cbbd 5a40 f83b 2089 23bd 844b 9dbd
00000070: e339 ec3c c0ab e63d d442 13be 75b1 16bc
00000080: 074f a3bb ce41 13bd 2e80 d0bc 10b5 0c3d
00000090: b733 8fbc add4 833d 0e95 353d b1a0 54bd
000000a0: 3a4f 7d3c c7d2 45bd 231d 813c c836 e73d
000000b0: d3d8 773d e759 c4bc a761 02bd d1f2 c1bd
000000c0: 9812 05be 0337 2f3c a128 b03c 07cb 903d
000000d0: 609d b9bc 711a 8ebc d9ca 8d3d 7794 103e
000000e0: b976 8abd 465f 973d 478f 9a3d f65e 1a3c
000000f0: f95c 823d 6eb1 e73d 42ec f83c 600e 1dbd

head_hint.weight f4 [1, 64]
-0.058676094 -0.09166442 -0.009104409 -0.06773332 0.00891756 -0.00033000915 0.03808139 0.007878239
-0.043925386 -0.10014591 -0.06135996 -0.08366003 0.109622955 -0.12469379 -0.042161543 0.09292375
0.09449279 0.08391095 0.018142128 -0.08609884 0.02298439 0.070362955 0.02926097 -0.088014
-0.048087873 0.100774154 0.022558738 0.06515333 -0.04084268 -0.067910075 0.10400047 0.0346051
-0.043698378 -0.06665049 -0.044839602 -0.023007074 0.000937609 0.11014315 0.0397502 -0.036417607
-0.09290894 -0.04730792 -0.05482021 0.07875368 -0.029140752 -0.121833965 0.10021994 0.07689119
-0.1052178 0.05524727 -0.13905308 -0.038949624 -0.10455381 0.09931875 -0.0051648244 0.027896333
0.054935165 0.059147492 0.0480716 -0.03803193 0.11577449 0.031387005 -0.0055279895 0.024584215
00000000: 5856 70bd 8eba bbbd a92a 15bc c4b7 8abd
00000010: f51a 123c 1405 adb9 3bfb 1b3d bb13 013c
00000020: 1beb 33bd 4d19 cdbd 9554 7bbd f355 abbd
00000030: 0082 e03d 755f ffbd 95b1 2cbd cf4e be3d
00000040: 7085 c13d 81d9 ab3d cd9e 943c 9754 b0bd
00000050: c249 bc3c 741a 903d b4b4 ef3c af40 b4bd
00000060: caf7 44bd ae62 ce3d 1acd b83c 1c6f 853d
00000070: a74a 27bd 7014 8bbd 33fe d43d 14be 0d3d
00000080: 12fd 32bd 0d80 88bd bba9 37bd 5579 bcbc
00000090: e0c9 753a bb92 e13d 1bd1 223d a12a 15bd
000000a0: 0b47 bebd f3c5 41bd 288b 60bd 9c49 a13d
000000b0: 96b8 eebc 1684 f9bd 1d40 cd3d 2179 9d3d
000000c0: 6e7c d7bd f64a 623d ee63 0ebe a489 1fbd
000000d0: 4f20 d6bd a167 cb3d b03d a9bb da86 e43c
000000e0: b203 613d a444 723d bae6 443d 5ec7 1bbd
000000f0: 2d1b ed3d a98f 003d 2324 b5bb d664 c93c

head_time.weight f4 [3, 64]
-0.07137192 0.032923866 -0.11563221 0.07983667 -0.11726797 0.04993843 0.029294806 0.027470516
-0.11460079 0.08017053 -0.08193266 -0.07230714 0.041588895 0.0904365 -0.049202647 0.066964984
0.1077769 0.017204968 0.09923279 0.051616523 -0.094248086 -0.0828022 -0.05626455 -0.031727493
-0.09699066 -0.00021727127 -0.044728134 0.021020973 0.0030890086 0.027681112 0.077578016 0.045427214
0.08460679 -0.086824566 0.1103637 -0.11961886 -0.00949289 -0.005133142 0.06599476 -0.0837373
0.12870309 0.07167744 -0.09753492 0.09665188 -0.13279289 -0.13038766 -0.03208713 0.093546815
-0.083049834 -0.008889699 0.07064212 0.10083674 -0.11598966 -0.020723982 0.09207057 0.10247277
0.10672098 -0.042391922 -0.08587921 -0.06603486 -0.14213133 -0.08993389 0.044115037 0.14305197
0.07235013 0.07086131 -0.060586795 0.008956897 0.10502277 -0.03577961 -0.14029944 -0.069425665
0.057806578 0.10534229 0.05731849 0.064402804 0.078810915 0.019518109 -0.06763887 -0.015474658
0.115979776 0.09179239 0.028811354 0.082907066 -0.03505826 0.015542909 -0.0027439974 0.05349812
-0.07247615 0.06309286 -0.07689413 0.07688154 -0.034999147 0.10878021 -0.011022354 -0.025776511
0.09720241 0.005048723 0.022109259 -0.075615436 -0.05870754 -0.13306491 0.02226273 0.08998264
-0.018825136 -0.07797988 -0.050251674 -0.10740784 0.050174776 0.06682475 -0.101118624 -0.051715612
-0.026189651 -0.07355239 -0.0699301 -0.062541865 0.02038507 0.012319967 0.0027351363 0.07814887
-0.08048286 0.08660921 0.04508458 0.053135484 0.037899375 -0.040772516 -0.076760024 -0.082214594
0.14466488 0.07426988 0.086730756 -0.08227198 -0.011152018 -0.047730334 0.009120284 0.12637272
-0.06680366 -0.025340034 -0.088869065 -0.06189212 -0.098361604 0.13087836 0.061511528 -0.01007464
-0.032274555 0.117385946 0.0995581 0.05628086 0.09554647 -0.090481475 -0.005185271 -0.024178676
0.0904064 -0.121309154 -0.09615586 0.13525498 -3.956532e-05 -0.0831107 0.06842682 0.09646134
0.0012011544 0.05659796 0.072989464 -0.0010144196 -0.10817056 0.11520304 0.071159795 -0.035635635
0.02409101 0.03806174 -0.016118307 0.0058735106 0.061818745 0.12650919 0.065965205 -0.0779443
-0.0723873 -0.022803398 -0.030111985 -0.06859652 0.03924827 0.06636602 0.11066791 0.0606124
0.09784197 0.1248856 -0.008852679 -0.036594566 0.12163282 -0.01798907 0.07571263 0.03417415
00000000: 712b 92bd 2ddb 063d 95d0 ecbd 6881 a33d
00000010: 312a f0bd 3d8c 4c3d a9fb ef3c d909 e13c
00000020: d2b3 eabd 7230 a43d 4fcc a7bd c415 94bd
00000030: 1e59 2a3d c636 b93d b788 49bd f024 893d
00000040: 23ba dc3d 6ff1 8c3c 903a cb3d d96b 533d
00000050: 2405 c1bd 3394 a9bd a875 66bd b0f4 01bd
00000060: 0aa3 c6bd 50d3 63b9 d934 37bd 2d34 ac3c
00000070: f770 4a3b 80c3 e23c 39e1 9e3d e311 3a3d
00000080: 5346 ad3d 14d1 b1bd 5d06 e23d bcfa f4bd
00000090: 1188 1bbc eb33 a8bb 4328 873d 767e abbd
000000a0: beca 033e 9fcb 923d 63c0 c7bd 6cf1 c53d
000000b0: dcfa 07be 5884 05be cb6d 03bd 7995 bf3d
000000c0: 0816 aabd 1aa6 11bc d1ac 903d 7e83 ce3d
000000d0: fd8b edbd 57c5 a9bc 7f8f bc3d 3edd d13d
000000e0: 8790 da3d 27a3 2dbd 70e1 afbd 493d 87bd
000000f0: e08a 11be 422f b8bd f8b1 343d 377c 123e
00000100: 4e2c 943d bc1f 913d dc29 78bd f3bf 123c
00000110: 2e16 d73d a48d 12bd a8aa 0fbe 0b2f 8ebd
00000120: 97c6 6c3d b3bd d73d cbc6 6a3d 9ee5 833d
00000130: 9e67 a13d 71e4 9f3c 3f86 8abd 6c89 7dbc
00000140: ce86 ed3d a6fd bb3d ca05 ec3c 2ecb a93d
00000150: 4099 0fbd afa7 7e3c a3d4 33bb d820 5b3d
00000160: 606e 94bd d436 813d ab7a 9dbd 1274 9d3d
00000170: 445b 0fbd 29c8 de3d 1a97 34bc 4329 d3bc
00000180: 0f12 c73d c26f a53b 7a1e b53c 44dc 9abd
00000190: 5177 70bd 2b42 08be 5460 b63c d248 b83d
000001a0: 2c37 9abc eab3 9fbd b3d4 4dbd a4f8 dbbd
000001b0: 1184 4d3d 6adb 883d 4817 cfbd c0d3 53bd
000001c0: ae8b d6bc a3a2 96bd 8337 8fbd f315 80bd
000001d0: 97fe a63c b0d9 493c f93f 333b 840c a03d
000001e0: 33d4 a4bd 2b60 b13d 9caa 383d 98a4 593d
000001f0: 603c 1b3d 1501 27bd 5c34 9dbd 2060 a8bd
00000200: 0823 143e cf1a 983d e59f b13d 367e a8bd
00000210: f4b6 36bc e280 43bd 3e6d 153c da67 013e
00000220: 5bd0 88bd e795 cfbc fc00 b6bd 9782 7dbd
00000230: cf71 c9bd fa04 063e 83f3 7b3d 1a10 25bc
00000240: 5332 04bd 0b68 f03d 1ee5 cb3d c286 663d
00000250: dead c33d 5a4e b9bd 35e9 a9bb 5c12 c6bc
00000260: fe26 b93d ef70 f8bd 5ded c4bd 4880 0a3e
00000270: f0f2 25b8 f135 aabd 5c23 8c3d 868d c53d
00000280: 0e70 9d3a 43d3 673d 807b 953d 46f6 84ba
00000290: 8788 ddbd 92ef eb3d 3abc 913d acf6 11bd
000002a0: 835a c53c a1e6 1b3d 8a0a 84bc 9476 c03b
000002b0: a735 7d3d a08b 013e c418 873d 43a1 9fbd
000002c0: cb3f 94bd 31ce babc 69ad f6bc 557c 8cbd
000002d0: cbc2 203d e8ea 873d dba5 e23d b544 783d
000002e0: 5f61 c83d 05c4 ff3d d40a 11bc 2fe4 15bd
000002f0: a11a f93d d05d 93bc 390f 9b3d 32fa 0b3d

head_time.bias f4 [3]
0.09725629 -0.09032466 0.0633732
00000000: 4e2e c73d 23fc b8bd cfc9 813d

head_state.weight f4 [5, 64]
0.08732085 0.07145422 -0.026311515 -0.05859426 -0.098123446 0.016638044 -0.12406824 0.056376975
-0.06742477 0.055008754 -0.032709043 0.097279 -0.049812153 0.06766016 0.065579236 -0.047017477
0.09427144 0.047871724 -0.11364858 -0.11138637 0.14356725 -0.14549217 -0.011647516 0.034539293
-0.038111974 -0.029502558 -0.001787159 -0.025224991 0.13637492 -0.08703317 -0.008495294 -0.027797788
-0.12752713 -0.018769301 -0.08514519 -0.029912489 -0.006798775 -0.0637699 0.14784493 0.07474953
0.047304668 0.07540251 0.11898846 -0.07911065 0.03619308 -0.006265667 -0.09842969 0.038892474
0.044835616 -0.11200783 -0.05341315 0.05482397 0.00012373016 -0.111637466 0.05234168 0.004671082
-0.08231567 -0.085015655 0.07723642 0.039836958 -0.13435431 0.0038733324 0.023169484 0.0022974883
-0.062265605 -0.12903708 -0.0130711235 -0.13768993 -0.056857556 0.08652881 0.045704134 -0.059498254
-0.01846242 -0.05417103 -0.14028284 -0.036108576 0.03914266 0.027690599 -0.032001663 -0.02862304
-0.053716633 0.08651708 0.079501025 -0.03281573 -0.062598124 -0.0958534 0.06117765 -0.0166671
-0.03344063 -0.090361826 0.051369205 0.0048828437 -0.0729381 0.006152658 0.14445852 0.059581593
0.08441784 -0.0069772825 0.052992005 0.039817136 0.021890575 0.0141023295 0.06786317 0.108178176
-0.102158345 -0.009645908 -0.08930146 -0.020085067 0.070850566 0.11581793 -0.05866871 -0.033348005
-0.0024880238 0.011634121 -0.059756532 0.08931465 -0.093633436 0.07909725 0.06666135 0.05830064
0.08588232 -0.14191817 0.01784289 0.12918037 0.09375764 -0.063527346 -0.04934326 0.029392969
-0.12333073 0.03410602 -0.13138291 0.057786595 -0.0524618 0.01961505 -0.09444396 0.025416542
0.058495272 -0.03769592 0.0016840184 0.028722038 0.06269176 -0.14009976 0.068646096 -0.044663325
0.025885863 0.0024473937 0.067058966 0.04970537 -0.079508536 0.0795385 -0.05772336 0.0073061017
-0.06284961 -0.09558252 -0.046074875 0.0074724993 -0.14144407 0.073818356 0.021482438 0.104472645
0.11815313 -0.0761659 0.027989047 -0.04786101 -0.06264756 0.12308797 0.062180147 0.07088617
0.10709788 0.07193874 -0.005296358 -0.06865185 -0.06258789 0.001193152 0.017039616 0.023598537
-0.0064369575 -0.10177568 -0.08784135 -0.019089455 -0.047689535 0.14837734 0.06534958 -0.07648178
0.0296774 -0.11917422 0.09579574 -0.10376039 0.015046149 0.1012586 -0.07531467 0.013797205
-0.013259241 0.0066596745 0.056160513 -0.047844738 0.13437101 -0.10564553 -0.029064653 -0.0058796876
0.027218865 0.085965574 -0.14751846 -0.028240427 -0.045825496 0.0875198 -0.052748762 -0.10228545
-0.043021224 -0.062816635 -0.091690585 -0.11775092 -0.06419758 0.108356915 -0.04766949 0.048561867
-0.018168522 -0.024336895 0.13253507 0.14861082 -0.038018454 -0.06311809 0.14721435 -0.08566976
0.11075806 0.051624388 -0.1187414 -0.058942907 0.083728075 -0.014193687 0.084996045 0.13805264
-0.11670902 0.021851212 -0.012135048 0.061870813 -0.050118864 -0.0365454 0.05601841 -0.07455245
0.025298124 -0.058136113 -0.082774706 -0.09817662 -0.040144566 -0.01668501 -0.047554836 0.04098337
0.12730569 -0.06731903 0.09271792 0.114531174 0.12837331 -0.117905475 -0.01753526 -0.017885527
00000000: 46d5 b23d 9756 923d 3f8b d7bc 8900 70bd
00000010: f2f4 c8bd 824c 883c 7d17 febd 8beb 663d
00000020: ff15 8abd dc50 613d ebf9 05bd 363a c73d
00000030: d407 4cbd 6991 8a3d 684e 863d 6695 40bd
00000040: 6211 c13d 2415 443d 96c0 e8bd 8a1e e4bd
00000050: 4b03 133e e6fb 14be 39d5 3ebc 1379 0d3d
00000060: 4d1b 1cbd 59af f1bc 1b3f eaba a4a4 cebc
00000070: dea5 0b3e 723e b2bd d82f 0bbc 30b8 e3bc
00000080: 7996 02be 14c2 99bc 9a60 aebd 090b f5bc
00000090: 42c8 debb cb99 82bd a964 173e 4816 993d
000000a0: 8ac2 413d a26c 9a3d 39b0 f33d c404 a2bd
000000b0: 323f 143d 3950 cdbb 8195 c9bd b74d 1f3d
000000c0: 8da5 373d 5c64 e5bd bfc7 5abd 198f 603d
000000d0: 90bd 0139 2fa2 e4bd 3b64 563d e00f 993b
000000e0: 1e95 a8bd b01c aebd 212e 9e3d 142c 233d
000000f0: 2d94 09be bcd7 7d3b eecd bd3c 7591 163b
00000100: 380a 7fbd 4c22 04be 4428 56bc 97fe 0cbe
00000110: 78e3 68bd 0436 b13d 4234 3b3d 71b4 73bd
00000120: 803e 97bc 71e2 5dbd 4ea6 0fbe 96e6 13bd
00000130: 0e54 203d 65d7 e23c 2d14 03bd de7a eabc
00000140: f905 5cbd de2f b13d 6fd1 a23d c969 06bd
00000150: 7233 80bd ca4e c4bd 6a95 7a3d 7189 88bc
00000160: 0bf9 08bd 9f0f b9bd 8468 523d 4300 a03b
00000170: 9260 95bd 3c9c c93b efec 133e d40b 743d
00000180: 43e3 ac3d b0a1 e4bb 250e 593d 4b17 233d
00000190: dd53 b33c 750d 673c d8fb 8a3d 858c dd3d
000001a0: 6538 d1bd df09 1ebc afe3 b6bd 7089 a4bc
000001b0: 1a1a 913d f331 ed3d 9a4e 70bd eb97 08bd
000001c0: 1d0e 23bb 0a9d 3e3c 44c3 74bd 99ea b63d
000001d0: e3c2 bfbd bdfd a13d bf85 883d a7cc 6e3d
000001e0: 12e3 af3d ff52 11be 412b 923c dc47 043e
000001f0: 0104 c03d a01a 82bd 281c 4abd 86c9 f03c
00000200: d294 fcbd c1b2 0b3d 3e89 06be a3b1 6c3d
00000210: 2fe2 56bd beaf a03c d66b c1bd 5a36 d03c
00000220: bd98 6f3d 0967 1abd 48ba dc3a 7b4a eb3c
00000230: 8a64 803d 5076 0fbe 5396 8c3d e4f0 36bd
00000240: 970e d43c 7464 203b 3656 893d dc97 4b3d
00000250: 5fd5 a2bd 15e5 a23d 546f 6cbd 0668 ef3b
00000260: 4cb7 80bd c5c0 c3bd 02b9 3cbd dedb f43b
00000270: b7d6 10be 142e 973d f0fb af3c c1f5 d53d
00000280: 45fa f13d defc 9bbd 4949 e53c e809 44bd
00000290: 5d4d 80bd 8c15 fc3d 9cb0 7e3d c52c 913d
000002a0: 2256 db3d 9e54 933d 128d adbb 5799 8cbd
000002b0: 142e 80bd 8a63 9c3a aa96 8b3c b851 c13c
000002c0: 1ded d2bb c56f d0bd 2ae6 b3bd 7d61 9cbc
000002d0: 1a56 43bd 3bf0 173e 00d6 853d 7ba2 9cbd
000002e0: 051e f33c 9d11 f4bd 8f30 c43d 5480 d4bd
000002f0: 1f84 763c ab60 cf3d 943e 9abd ac0d 623c
00000300: 4a3d 59bc 6639 da3b 9108 663d d8f8 43bd
00000310: 8e98 093e af5c d8bd ff18 eebc 65aa c0bb
00000320: 19fa de3c b80e b03d 140f 17be 7858 e7bc
00000330: 84b3 3bbd 953d b33d 160f 58bd 097b d1bd
00000340: 0637 30bd 02a6 80bd 46c8 bbbd 6527 f1bd
00000350: 057a 83bd 3bea dd3d 1541 43bd cfe8 463d
00000360: 27d6 94bc 2b5e c7bc 46b7 073e 6f2d 183e
00000370: 3db9 1bbd 0f44 81bd 5cbf 163e a173 afbd
00000380: 1fd5 e23d 1874 533d b12e f3bd 1e6e 71bd
00000390: a079 ab3d a38c 68bc 6812 ae3d ac5d 0d3e
000003a0: 2405 efbd 5001 b33c 15d2 46bc 406c 7d3d
000003b0: 7049 4dbd a1b0 15bd 8f73 653d f4ae 98bd
000003c0: 033e cf3c 2220 6ebd c985 a9bd d310 c9bd
000003d0: a16e 24bd 01af 88bc dcc8 42bd 2ede 273d
000003e0: 6c5c 023e 8fde 89bd e5e2 bd3d 528f ea3d
000003f0: 4b74 033e 6d78 f1bd 1ba6 8fbc ab84 92bc

head_state.bias f4 [5]
-0.08995956 0.028731287 0.07831469 -0.11390883 0.06842145
00000000: b83c b8bd e05d eb3c 7463 a03d 0849 e9bd
00000010: 8c20 8c3d
